batch = 534
Model: "sequential_1"
_________________________________________________________________
Layer (type)                 Output Shape              Param #   
=================================================================
reshape_1 (Reshape)          (None, 1, 6272)           0         
_________________________________________________________________
lstm_1 (LSTM)                (None, 1, 512)            13895680  
_________________________________________________________________
batch_normalization_1 (Batch (None, 1, 512)            2048      
_________________________________________________________________
lstm_2 (LSTM)                (None, 512)               2099200   
_________________________________________________________________
dense_1 (Dense)              (None, 1)                 513       
=================================================================
Total params: 15,997,441
Trainable params: 15,996,417
Non-trainable params: 1,024
_________________________________________________________________
Epoch 1/4

  1/425 [..............................] - ETA: 43:33 - loss: 0.6933 - acc: 0.4476 - tp: 0.4476 - tn: 0.0000e+00
  2/425 [..............................] - ETA: 24:06 - loss: 0.6957 - acc: 0.2247 - tp: 0.2238 - tn: 9.3633e-04
…
