batch = 534
Model: "sequential_1"
_________________________________________________________________
Layer (type)                 Output Shape              Param #   
=================================================================
dense_1 (Dense)              (None, 1024)              6423552   
_________________________________________________________________
batch_normalization_1 (Batch (None, 1024)              4096      
_________________________________________________________________
dense_2 (Dense)              (None, 1024)              1049600   
_________________________________________________________________
batch_normalization_2 (Batch (None, 1024)              4096      
_________________________________________________________________
dense_3 (Dense)              (None, 1024)              1049600   
_________________________________________________________________
batch_normalization_3 (Batch (None, 1024)              4096      
_________________________________________________________________
dense_4 (Dense)              (None, 1024)              1049600   
_________________________________________________________________
batch_normalization_4 (Batch (None, 1024)              4096      
_________________________________________________________________
reshape_1 (Reshape)          (None, 1, 1024)           0         
_________________________________________________________________
lstm_1 (LSTM)                (None, 1)                 4104      
=================================================================
Total params: 9,592,840
Trainable params: 9,584,648
Non-trainable params: 8,192
_________________________________________________________________
Epoch 1/5

  1/425 [..............................] - ETA: 24:30 - loss: 1.2078 - acc: 0.1929 - tp: 0.0446 - tn: 0.9651
  2/425 [..............................] - ETA: 13:36 - loss: 2.7151 - acc: 0.2903 - tp: 0.2161 - tn: 0.4826
…
