batch = 534
Model: "sequential_1"
_________________________________________________________________
Layer (type)                 Output Shape              Param #   
=================================================================
dense_1 (Dense)              (None, 1024)              6423552   
_________________________________________________________________
batch_normalization_1 (Batch (None, 1024)              4096      
_________________________________________________________________
dense_2 (Dense)              (None, 1024)              1049600   
_________________________________________________________________
batch_normalization_2 (Batch (None, 1024)              4096      
_________________________________________________________________
dense_3 (Dense)              (None, 1024)              1049600   
_________________________________________________________________
batch_normalization_3 (Batch (None, 1024)              4096      
_________________________________________________________________
dense_4 (Dense)              (None, 1024)              1049600   
_________________________________________________________________
batch_normalization_4 (Batch (None, 1024)              4096      
_________________________________________________________________
dense_5 (Dense)              (None, 1024)              1049600   
_________________________________________________________________
batch_normalization_5 (Batch (None, 1024)              4096      
_________________________________________________________________
dense_6 (Dense)              (None, 1024)              1049600   
_________________________________________________________________
batch_normalization_6 (Batch (None, 1024)              4096      
_________________________________________________________________
dense_7 (Dense)              (None, 1024)              1049600   
_________________________________________________________________
batch_normalization_7 (Batch (None, 1024)              4096      
_________________________________________________________________
reshape_1 (Reshape)          (None, 1, 1024)           0         
_________________________________________________________________
lstm_1 (LSTM)                (None, 1)                 4104      
=================================================================
Total params: 12,753,928
Trainable params: 12,739,592
Non-trainable params: 14,336
_________________________________________________________________
Epoch 1/10

  1/425 [..............................] - ETA: 34:23 - loss: 0.3535 - acc: 0.9345 - tp: 0.0000e+00 - tn: 0.9345
  2/425 [..............................] - ETA: 19:12 - loss: 1.7333 - acc: 0.6498 - tp: 0.0021 - tn: 0.7994    
…
