batch = 534
Model: "sequential_1"
_________________________________________________________________
Layer (type)                 Output Shape              Param #   
=================================================================
dense_1 (Dense)              (None, 512)               3211776   
_________________________________________________________________
batch_normalization_1 (Batch (None, 512)               2048      
_________________________________________________________________
dense_2 (Dense)              (None, 512)               262656    
_________________________________________________________________
batch_normalization_2 (Batch (None, 512)               2048      
_________________________________________________________________
dense_3 (Dense)              (None, 512)               262656    
_________________________________________________________________
batch_normalization_3 (Batch (None, 512)               2048      
_________________________________________________________________
dense_4 (Dense)              (None, 512)               262656    
_________________________________________________________________
batch_normalization_4 (Batch (None, 512)               2048      
_________________________________________________________________
dense_5 (Dense)              (None, 512)               262656    
_________________________________________________________________
batch_normalization_5 (Batch (None, 512)               2048      
_________________________________________________________________
reshape_1 (Reshape)          (None, 1, 512)            0         
_________________________________________________________________
lstm_1 (LSTM)                (None, 1)                 2056      
=================================================================
Total params: 4,274,696
Trainable params: 4,269,576
Non-trainable params: 5,120
_________________________________________________________________
Epoch 1/15

  1/425 [..............................] - ETA: 20:57 - loss: 1.8876 - acc: 0.0655 - tp: 0.0655 - tn: 0.0000e+00
  2/425 [..............................] - ETA: 11:11 - loss: 1.8372 - acc: 0.0534 - tp: 0.0534 - tn: 0.0000e+00
…
423/425 [============================>.] - ETA: 0s - loss: 0.5816 - acc: 0.6272 - tp: 0.3990 - tn: 0.6846
424/425 [============================>.] - ETA: 0s - loss: 0.5807 - acc: 0.6280 - tp: 0.4004 - tn: 0.6853
425/425 [==============================] - 80s 189ms/step - loss: 0.5819 - acc: 0.6266 - tp: 0.3995 - tn: 0.6837 - val_loss: 2.1631 - val_acc: 0.4801 - val_tp: 0.0023 - val_tn: 0.6143
batch = 534
Model: "sequential_1"
_________________________________________________________________
Layer (type)                 Output Shape              Param #   
=================================================================
dense_1 (Dense)              (None, 512)               3211776   
_________________________________________________________________
batch_normalization_1 (Batch (None, 512)               2048      
_________________________________________________________________
dense_2 (Dense)              (None, 512)               262656    
_________________________________________________________________
batch_normalization_2 (Batch (None, 512)               2048      
_________________________________________________________________
dense_3 (Dense)              (None, 512)               262656    
_________________________________________________________________
batch_normalization_3 (Batch (None, 512)               2048      
_________________________________________________________________
dense_4 (Dense)              (None, 512)               262656    
_________________________________________________________________
batch_normalization_4 (Batch (None, 512)               2048      
_________________________________________________________________
reshape_1 (Reshape)          (None, 1, 512)            0         
_________________________________________________________________
lstm_1 (LSTM)                (None, 1)                 2056      
=================================================================
Total params: 4,009,992
Trainable params: 4,005,896
Non-trainable params: 4,096
_________________________________________________________________
Epoch 1/5

  1/425 [..............................] - ETA: 17:36 - loss: 1.4990 - acc: 0.2210 - tp: 0.0371 - tn: 0.9903
  2/425 [..............................] - ETA: 9:17 - loss: 1.6295 - acc: 0.3942 - tp: 0.1669 - tn: 0.9927 
…
