batch = 534
Model: "sequential_1"
_________________________________________________________________
Layer (type)                 Output Shape              Param #   
=================================================================
dense_1 (Dense)              (None, 512)               3211776   
_________________________________________________________________
batch_normalization_1 (Batch (None, 512)               2048      
_________________________________________________________________
dense_2 (Dense)              (None, 512)               262656    
_________________________________________________________________
batch_normalization_2 (Batch (None, 512)               2048      
_________________________________________________________________
dense_3 (Dense)              (None, 512)               262656    
_________________________________________________________________
batch_normalization_3 (Batch (None, 512)               2048      
_________________________________________________________________
dense_4 (Dense)              (None, 512)               262656    
_________________________________________________________________
batch_normalization_4 (Batch (None, 512)               2048      
_________________________________________________________________
reshape_1 (Reshape)          (None, 1, 512)            0         
_________________________________________________________________
lstm_1 (LSTM)                (None, 1)                 2056      
=================================================================
Total params: 4,009,992
Trainable params: 4,005,896
Non-trainable params: 4,096
_________________________________________________________________
Epoch 1/4

  1/425 [..............................] - ETA: 16:55 - loss: 0.3964 - acc: 0.8689 - tp: 0.0000e+00 - tn: 0.9261
  2/425 [..............................] - ETA: 8:56 - loss: 1.1091 - acc: 0.5234 - tp: 0.0197 - tn: 0.8417     
…
