batch = 534
Model: "sequential_1"
_________________________________________________________________
Layer (type)                 Output Shape              Param #   
=================================================================
dense_1 (Dense)              (None, 512)               3211776   
_________________________________________________________________
batch_normalization_1 (Batch (None, 512)               2048      
_________________________________________________________________
dense_2 (Dense)              (None, 512)               262656    
_________________________________________________________________
batch_normalization_2 (Batch (None, 512)               2048      
_________________________________________________________________
dense_3 (Dense)              (None, 512)               262656    
_________________________________________________________________
batch_normalization_3 (Batch (None, 512)               2048      
_________________________________________________________________
dense_4 (Dense)              (None, 512)               262656    
_________________________________________________________________
batch_normalization_4 (Batch (None, 512)               2048      
_________________________________________________________________
reshape_1 (Reshape)          (None, 1, 512)            0         
_________________________________________________________________
lstm_1 (LSTM)                (None, 1)                 2056      
=================================================================
Total params: 4,009,992
Trainable params: 4,005,896
Non-trainable params: 4,096
_________________________________________________________________
Epoch 1/5

  1/420 [..............................] - ETA: 17:21 - loss: 1.7722 - acc: 0.1067 - tp: 0.1067 - tn: 0.0000e+00
  2/420 [..............................] - ETA: 9:10 - loss: 2.0048 - acc: 0.1807 - tp: 0.1219 - tn: 0.3958     
…
419/420 [============================>.] - ETA: 0s - loss: 0.3183 - acc: 0.9214 - tp: 0.6260 - tn: 0.6937
420/420 [==============================] - 64s 152ms/step - loss: 0.3183 - acc: 0.9214 - tp: 0.6267 - tn: 0.6944 - val_loss: 0.9439 - val_acc: 0.6624 - val_tp: 0.2833 - val_tn: 0.5731

Epoch 00005: val_tp did not improve from 0.34998
batch = 534
batch = 534
batch = 534
Model: "sequential_1"
_________________________________________________________________
Layer (type)                 Output Shape              Param #   
=================================================================
dense_1 (Dense)              (None, 512)               3211776   
_________________________________________________________________
batch_normalization_1 (Batch (None, 512)               2048      
_________________________________________________________________
dense_2 (Dense)              (None, 512)               262656    
_________________________________________________________________
batch_normalization_2 (Batch (None, 512)               2048      
_________________________________________________________________
dense_3 (Dense)              (None, 512)               262656    
_________________________________________________________________
batch_normalization_3 (Batch (None, 512)               2048      
_________________________________________________________________
dense_4 (Dense)              (None, 512)               262656    
_________________________________________________________________
batch_normalization_4 (Batch (None, 512)               2048      
_________________________________________________________________
reshape_1 (Reshape)          (None, 1, 512)            0         
_________________________________________________________________
lstm_1 (LSTM)                (None, 1)                 2056      
=================================================================
Total params: 4,009,992
Trainable params: 4,005,896
Non-trainable params: 4,096
_________________________________________________________________
Epoch 1/5
batch = 534
Model: "sequential_1"
_________________________________________________________________
Layer (type)                 Output Shape              Param #   
=================================================================
dense_1 (Dense)              (None, 512)               3211776   
_________________________________________________________________
batch_normalization_1 (Batch (None, 512)               2048      
_________________________________________________________________
dense_2 (Dense)              (None, 512)               262656    
_________________________________________________________________
batch_normalization_2 (Batch (None, 512)               2048      
_________________________________________________________________
dense_3 (Dense)              (None, 512)               262656    
_________________________________________________________________
batch_normalization_3 (Batch (None, 512)               2048      
_________________________________________________________________
dense_4 (Dense)              (None, 512)               262656    
_________________________________________________________________
batch_normalization_4 (Batch (None, 512)               2048      
_________________________________________________________________
reshape_1 (Reshape)          (None, 1, 512)            0         
_________________________________________________________________
lstm_1 (LSTM)                (None, 1)                 2056      
=================================================================
Total params: 4,009,992
Trainable params: 4,005,896
Non-trainable params: 4,096
_________________________________________________________________
Epoch 1/5

  1/425 [..............................] - ETA: 17:44 - loss: 1.1269 - acc: 0.5506 - tp: 0.1240 - tn: 0.9493
  2/425 [..............................] - ETA: 9:27 - loss: 2.0315 - acc: 0.3539 - tp: 0.1407 - tn: 0.4746 
…
