batch = 534
Model: "sequential_1"
_________________________________________________________________
Layer (type)                 Output Shape              Param #   
=================================================================
dense_1 (Dense)              (None, 512)               3211776   
_________________________________________________________________
batch_normalization_1 (Batch (None, 512)               2048      
_________________________________________________________________
dense_2 (Dense)              (None, 512)               262656    
_________________________________________________________________
batch_normalization_2 (Batch (None, 512)               2048      
_________________________________________________________________
dense_3 (Dense)              (None, 512)               262656    
_________________________________________________________________
batch_normalization_3 (Batch (None, 512)               2048      
_________________________________________________________________
dense_4 (Dense)              (None, 512)               262656    
_________________________________________________________________
batch_normalization_4 (Batch (None, 512)               2048      
_________________________________________________________________
dense_5 (Dense)              (None, 512)               262656    
_________________________________________________________________
batch_normalization_5 (Batch (None, 512)               2048      
_________________________________________________________________
dense_6 (Dense)              (None, 512)               262656    
_________________________________________________________________
batch_normalization_6 (Batch (None, 512)               2048      
_________________________________________________________________
dense_7 (Dense)              (None, 512)               262656    
_________________________________________________________________
batch_normalization_7 (Batch (None, 512)               2048      
_________________________________________________________________
dense_8 (Dense)              (None, 512)               262656    
_________________________________________________________________
batch_normalization_8 (Batch (None, 512)               2048      
_________________________________________________________________
dense_9 (Dense)              (None, 512)               262656    
_________________________________________________________________
batch_normalization_9 (Batch (None, 512)               2048      
_________________________________________________________________
reshape_1 (Reshape)          (None, 1, 512)            0         
_________________________________________________________________
lstm_1 (LSTM)                (None, 1)                 2056      
=================================================================
Total params: 5,333,512
Trainable params: 5,324,296
Non-trainable params: 9,216
_________________________________________________________________
Epoch 1/5

  1/425 [..............................] - ETA: 29:08 - loss: 1.9421 - acc: 0.1067 - tp: 0.1067 - tn: 0.0000e+00
  2/425 [..............................] - ETA: 15:18 - loss: 1.1486 - acc: 0.5243 - tp: 0.0534 - tn: 0.4710    
…
