batch = 534
Model: "sequential_1"
_________________________________________________________________
Layer (type)                 Output Shape              Param #   
=================================================================
reshape_1 (Reshape)          (None, 1, 6272)           0         
_________________________________________________________________
lstm_1 (LSTM)                (None, 1, 512)            13895680  
_________________________________________________________________
batch_normalization_1 (Batch (None, 1, 512)            2048      
_________________________________________________________________
lstm_2 (LSTM)                (None, 512)               2099200   
_________________________________________________________________
dense_1 (Dense)              (None, 1)                 513       
=================================================================
Total params: 15,997,441
Trainable params: 15,996,417
Non-trainable params: 1,024
_________________________________________________________________
Epoch 1/4

  1/425 [..............................] - ETA: 36:21 - loss: 0.6933 - acc: 0.4101 - tp: 0.6547 - tn: 0.1445
  2/425 [..............................] - ETA: 20:36 - loss: 0.6922 - acc: 0.5112 - tp: 0.6335 - tn: 0.0723
…
