True
Model: "model_1"
__________________________________________________________________________________________________
Layer (type)                    Output Shape         Param #     Connected to                     
==================================================================================================
cnn_input (InputLayer)          (None, 64, 64)       0                                            
__________________________________________________________________________________________________
reshape_1 (Reshape)             (None, 64, 64, 1)    0           cnn_input[0][0]                  
__________________________________________________________________________________________________
batch_normalization_1 (BatchNor (None, 64, 64, 1)    4           reshape_1[0][0]                  
__________________________________________________________________________________________________
conv2d_1 (Conv2D)               (None, 64, 64, 20)   520         batch_normalization_1[0][0]      
__________________________________________________________________________________________________
batch_normalization_2 (BatchNor (None, 64, 64, 20)   80          conv2d_1[0][0]                   
__________________________________________________________________________________________________
max_pooling2d_1 (MaxPooling2D)  (None, 32, 32, 20)   0           batch_normalization_2[0][0]      
__________________________________________________________________________________________________
conv2d_2 (Conv2D)               (None, 32, 32, 40)   7240        max_pooling2d_1[0][0]            
__________________________________________________________________________________________________
batch_normalization_3 (BatchNor (None, 32, 32, 40)   160         conv2d_2[0][0]                   
__________________________________________________________________________________________________
max_pooling2d_2 (MaxPooling2D)  (None, 16, 16, 40)   0           batch_normalization_3[0][0]      
__________________________________________________________________________________________________
conv2d_3 (Conv2D)               (None, 16, 16, 40)   14440       max_pooling2d_2[0][0]            
__________________________________________________________________________________________________
batch_normalization_4 (BatchNor (None, 16, 16, 40)   160         conv2d_3[0][0]                   
__________________________________________________________________________________________________
max_pooling2d_3 (MaxPooling2D)  (None, 8, 8, 40)     0           batch_normalization_4[0][0]      
__________________________________________________________________________________________________
flatten_1 (Flatten)             (None, 2560)         0           max_pooling2d_3[0][0]            
__________________________________________________________________________________________________
coords_input (InputLayer)       (None, 4)            0                                            
__________________________________________________________________________________________________
concatenate_1 (Concatenate)     (None, 2564)         0           flatten_1[0][0]                  
                                                                 coords_input[0][0]               
__________________________________________________________________________________________________
dense_1 (Dense)                 (None, 256)          656640      concatenate_1[0][0]              
__________________________________________________________________________________________________
batch_normalization_5 (BatchNor (None, 256)          1024        dense_1[0][0]                    
__________________________________________________________________________________________________
reshape_2 (Reshape)             (None, 1, 256)       0           batch_normalization_5[0][0]      
__________________________________________________________________________________________________
lstm_1 (LSTM)                   (None, 1)            1032        reshape_2[0][0]                  
==================================================================================================
Total params: 681,300
Trainable params: 680,586
Non-trainable params: 714
__________________________________________________________________________________________________
Epoch 1/2

  1/850 [..............................] - ETA: 1:34:51 - loss: 1.9805 - acc: 0.1554 - tp: 0.1554 - tn: 0.0000e+00
…
