batch = 89
Model: "sequential_1"
_________________________________________________________________
Layer (type)                 Output Shape              Param #   
=================================================================
dense_1 (Dense)              (None, 512)               3211776   
_________________________________________________________________
batch_normalization_1 (Batch (None, 512)               2048      
_________________________________________________________________
dense_2 (Dense)              (None, 512)               262656    
_________________________________________________________________
batch_normalization_2 (Batch (None, 512)               2048      
_________________________________________________________________
dense_3 (Dense)              (None, 512)               262656    
_________________________________________________________________
batch_normalization_3 (Batch (None, 512)               2048      
_________________________________________________________________
dense_4 (Dense)              (None, 512)               262656    
_________________________________________________________________
batch_normalization_4 (Batch (None, 512)               2048      
_________________________________________________________________
dense_5 (Dense)              (None, 512)               262656    
_________________________________________________________________
batch_normalization_5 (Batch (None, 512)               2048      
_________________________________________________________________
dense_6 (Dense)              (None, 512)               262656    
_________________________________________________________________
batch_normalization_6 (Batch (None, 512)               2048      
_________________________________________________________________
dense_7 (Dense)              (None, 512)               262656    
_________________________________________________________________
batch_normalization_7 (Batch (None, 512)               2048      
_________________________________________________________________
reshape_1 (Reshape)          (None, 1, 512)            0         
_________________________________________________________________
lstm_1 (LSTM)                (None, 1)                 2056      
=================================================================
Total params: 4,804,104
Trainable params: 4,796,936
Non-trainable params: 7,168
_________________________________________________________________
Epoch 1/10

   1/2550 [..............................] - ETA: 2:25:40 - loss: 2.0375 - acc: 0.0787 - tp: 0.0787 - tn: 0.0000e+00
   2/2550 [..............................] - ETA: 1:14:22 - loss: 2.0227 - acc: 0.0674 - tp: 0.0674 - tn: 0.0000e+00
…
