batch = 534
Model: "sequential_1"
_________________________________________________________________
Layer (type)                 Output Shape              Param #   
=================================================================
dense_1 (Dense)              (None, 512)               3211776   
_________________________________________________________________
batch_normalization_1 (Batch (None, 512)               2048      
_________________________________________________________________
dense_2 (Dense)              (None, 512)               262656    
_________________________________________________________________
batch_normalization_2 (Batch (None, 512)               2048      
_________________________________________________________________
reshape_1 (Reshape)          (None, 1, 512)            0         
_________________________________________________________________
simple_rnn_1 (SimpleRNN)     (None, 1)                 514       
=================================================================
Total params: 3,479,042
Trainable params: 3,476,994
Non-trainable params: 2,048
_________________________________________________________________
Epoch 1/4

  1/425 [..............................] - ETA: 10:30 - loss: 0.7721 - acc: 0.4532 - tp: 0.4532 - tn: 0.0000e+00
  2/425 [..............................] - ETA: 5:41 - loss: 1.5694 - acc: 0.4775 - tp: 0.4893 - tn: 0.0000e+00 
…
