batch = 534
Model: "model_1"
__________________________________________________________________________________________________
Layer (type)                    Output Shape         Param #     Connected to                     
==================================================================================================
input_1 (InputLayer)            (None, 6272)         0                                            
__________________________________________________________________________________________________
dense_1 (Dense)                 (None, 1024)         6423552     input_1[0][0]                    
__________________________________________________________________________________________________
dense_2 (Dense)                 (None, 1024)         1049600     dense_1[0][0]                    
__________________________________________________________________________________________________
input_2 (InputLayer)            (None, 4)            0                                            
__________________________________________________________________________________________________
batch_normalization_1 (BatchNor (None, 1024)         4096        dense_2[0][0]                    
__________________________________________________________________________________________________
concatenate_1 (Concatenate)     (None, 1028)         0           input_2[0][0]                    
                                                                 batch_normalization_1[0][0]      
__________________________________________________________________________________________________
dense_3 (Dense)                 (None, 256)          263424      concatenate_1[0][0]              
__________________________________________________________________________________________________
reshape_1 (Reshape)             (None, 1, 256)       0           dense_3[0][0]                    
__________________________________________________________________________________________________
lstm_1 (LSTM)                   (None, 1)            1032        reshape_1[0][0]                  
==================================================================================================
Total params: 7,741,704
Trainable params: 7,739,656
Non-trainable params: 2,048
__________________________________________________________________________________________________
Epoch 1/5

  1/425 [..............................] - ETA: 14:48 - loss: 0.9656 - acc: 0.3333 - tp: 0.0000e+00 - tn: 1.0000
…
