batch = 534
Model: "model_1"
_________________________________________________________________
Layer (type)                 Output Shape              Param #   
=================================================================
input_1 (InputLayer)         (None, 6276)              0         
_________________________________________________________________
dense_1 (Dense)              (None, 1024)              6427648   
_________________________________________________________________
dense_2 (Dense)              (None, 1024)              1049600   
_________________________________________________________________
batch_normalization_1 (Batch (None, 1024)              4096      
_________________________________________________________________
reshape_1 (Reshape)          (None, 1, 1024)           0         
_________________________________________________________________
lstm_1 (LSTM)                (None, 1)                 4104      
=================================================================
Total params: 7,485,448
Trainable params: 7,483,400
Non-trainable params: 2,048
_________________________________________________________________
Epoch 1/5

  1/425 [..............................] - ETA: 14:09 - loss: 0.4821 - acc: 0.8333 - tp: 0.0000e+00 - tn: 1.0000
  2/425 [..............................] - ETA: 7:53 - loss: 0.8877 - acc: 0.4167 - tp: 0.0000e+00 - tn: 0.5000 
…
