Model: "model_1"
_________________________________________________________________
Layer (type)                 Output Shape              Param #   
=================================================================
cnn_input (InputLayer)       (None, 64, 64)            0         
_________________________________________________________________
reshape_1 (Reshape)          (None, 64, 64, 1)         0         
_________________________________________________________________
batch_normalization_1 (Batch (None, 64, 64, 1)         4         
_________________________________________________________________
conv2d_1 (Conv2D)            (None, 64, 64, 20)        520       
_________________________________________________________________
batch_normalization_2 (Batch (None, 64, 64, 20)        80        
_________________________________________________________________
max_pooling2d_1 (MaxPooling2 (None, 32, 32, 20)        0         
_________________________________________________________________
conv2d_2 (Conv2D)            (None, 32, 32, 40)        7240      
_________________________________________________________________
batch_normalization_3 (Batch (None, 32, 32, 40)        160       
_________________________________________________________________
max_pooling2d_2 (MaxPooling2 (None, 16, 16, 40)        0         
_________________________________________________________________
flatten_1 (Flatten)          (None, 10240)             0         
_________________________________________________________________
dense_1 (Dense)              (None, 512)               5243392   
_________________________________________________________________
reshape_2 (Reshape)          (None, 1, 512)            0         
_________________________________________________________________
lstm_1 (LSTM)                (None, 1)                 2056      
=================================================================
Total params: 5,253,452
Trainable params: 5,253,330
Non-trainable params: 122
_________________________________________________________________
Epoch 1/4
Model: "model_1"
_________________________________________________________________
Layer (type)                 Output Shape              Param #   
=================================================================
cnn_input (InputLayer)       (None, 64, 64)            0         
_________________________________________________________________
reshape_1 (Reshape)          (None, 64, 64, 1)         0         
_________________________________________________________________
batch_normalization_1 (Batch (None, 64, 64, 1)         4         
_________________________________________________________________
conv2d_1 (Conv2D)            (None, 64, 64, 20)        520       
_________________________________________________________________
batch_normalization_2 (Batch (None, 64, 64, 20)        80        
_________________________________________________________________
max_pooling2d_1 (MaxPooling2 (None, 32, 32, 20)        0         
_________________________________________________________________
conv2d_2 (Conv2D)            (None, 32, 32, 40)        7240      
_________________________________________________________________
batch_normalization_3 (Batch (None, 32, 32, 40)        160       
_________________________________________________________________
max_pooling2d_2 (MaxPooling2 (None, 16, 16, 40)        0         
_________________________________________________________________
flatten_1 (Flatten)          (None, 10240)             0         
_________________________________________________________________
dense_1 (Dense)              (None, 512)               5243392   
_________________________________________________________________
reshape_2 (Reshape)          (None, 1, 512)            0         
_________________________________________________________________
lstm_1 (LSTM)                (None, 1)                 2056      
=================================================================
Total params: 5,253,452
Trainable params: 5,253,330
Non-trainable params: 122
_________________________________________________________________
Model: "model_1"
_________________________________________________________________
Layer (type)                 Output Shape              Param #   
=================================================================
cnn_input (InputLayer)       (None, 64, 64)            0         
_________________________________________________________________
reshape_1 (Reshape)          (None, 64, 64, 1)         0         
_________________________________________________________________
batch_normalization_1 (Batch (None, 64, 64, 1)         4         
_________________________________________________________________
conv2d_1 (Conv2D)            (None, 64, 64, 20)        520       
_________________________________________________________________
batch_normalization_2 (Batch (None, 64, 64, 20)        80        
_________________________________________________________________
max_pooling2d_1 (MaxPooling2 (None, 32, 32, 20)        0         
_________________________________________________________________
conv2d_2 (Conv2D)            (None, 32, 32, 40)        7240      
_________________________________________________________________
batch_normalization_3 (Batch (None, 32, 32, 40)        160       
_________________________________________________________________
max_pooling2d_2 (MaxPooling2 (None, 16, 16, 40)        0         
_________________________________________________________________
flatten_1 (Flatten)          (None, 10240)             0         
_________________________________________________________________
dense_1 (Dense)              (None, 512)               5243392   
_________________________________________________________________
reshape_2 (Reshape)          (None, 1, 512)            0         
_________________________________________________________________
lstm_1 (LSTM)                (None, 1)                 2056      
=================================================================
Total params: 5,253,452
Trainable params: 5,253,330
Non-trainable params: 122
_________________________________________________________________
Epoch 1/4
False
Model: "model_1"
_________________________________________________________________
Layer (type)                 Output Shape              Param #   
=================================================================
cnn_input (InputLayer)       (None, 64, 64)            0         
_________________________________________________________________
reshape_1 (Reshape)          (None, 64, 64, 1)         0         
_________________________________________________________________
batch_normalization_1 (Batch (None, 64, 64, 1)         4         
_________________________________________________________________
conv2d_1 (Conv2D)            (None, 64, 64, 20)        520       
_________________________________________________________________
batch_normalization_2 (Batch (None, 64, 64, 20)        80        
_________________________________________________________________
max_pooling2d_1 (MaxPooling2 (None, 32, 32, 20)        0         
_________________________________________________________________
conv2d_2 (Conv2D)            (None, 32, 32, 40)        7240      
_________________________________________________________________
batch_normalization_3 (Batch (None, 32, 32, 40)        160       
_________________________________________________________________
max_pooling2d_2 (MaxPooling2 (None, 16, 16, 40)        0         
_________________________________________________________________
flatten_1 (Flatten)          (None, 10240)             0         
_________________________________________________________________
dense_1 (Dense)              (None, 512)               5243392   
_________________________________________________________________
reshape_2 (Reshape)          (None, 1, 512)            0         
_________________________________________________________________
lstm_1 (LSTM)                (None, 1)                 2056      
=================================================================
Total params: 5,253,452
Trainable params: 5,253,330
Non-trainable params: 122
_________________________________________________________________
Epoch 1/4

  1/425 [..............................] - ETA: 41:10 - loss: 1.3680 - acc: 0.1367 - tp: 0.0000e+00 - tn: 1.0000
  2/425 [..............................] - ETA: 34:51 - loss: 1.1318 - acc: 0.2659 - tp: 0.5000 - tn: 0.5000    
…
 15/425 [>.............................] - ETA: 28:22 - loss: 1.6844 - acc: 0.4474 - tp: 0.1578 - tn: 0.6351
 16/425 [>.............................] - ETA: 28:23 - loss: 1.6224 - acc: 0.4820 - tp: 0.1480 - tn: 0.6579
 17/425 [>.............................] - ETA: 28:16 - loss: 1.5678 - acc: 0.4818 - tp: 0.1393 - tn: 0.6780
 18/425 [>.............................] - ETA: 28:09 - loss: 1.5192 - acc: 0.4644 - tp: 0.1315 - tn: 0.6959False
Model: "model_1"
_________________________________________________________________
Layer (type)                 Output Shape              Param #   
=================================================================
cnn_input (InputLayer)       (None, 64, 64)            0         
_________________________________________________________________
reshape_1 (Reshape)          (None, 64, 64, 1)         0         
_________________________________________________________________
batch_normalization_1 (Batch (None, 64, 64, 1)         4         
_________________________________________________________________
conv2d_1 (Conv2D)            (None, 64, 64, 20)        520       
_________________________________________________________________
batch_normalization_2 (Batch (None, 64, 64, 20)        80        
_________________________________________________________________
max_pooling2d_1 (MaxPooling2 (None, 32, 32, 20)        0         
_________________________________________________________________
conv2d_2 (Conv2D)            (None, 32, 32, 40)        7240      
_________________________________________________________________
batch_normalization_3 (Batch (None, 32, 32, 40)        160       
_________________________________________________________________
max_pooling2d_2 (MaxPooling2 (None, 16, 16, 40)        0         
_________________________________________________________________
flatten_1 (Flatten)          (None, 10240)             0         
_________________________________________________________________
dense_1 (Dense)              (None, 1024)              10486784  
_________________________________________________________________
dense_2 (Dense)              (None, 1024)              1049600   
_________________________________________________________________
reshape_2 (Reshape)          (None, 1, 1024)           0         
_________________________________________________________________
lstm_1 (LSTM)                (None, 1)                 4104      
=================================================================
Total params: 11,548,492
Trainable params: 11,548,370
Non-trainable params: 122
_________________________________________________________________
Epoch 1/4

  1/425 [..............................] - ETA: 45:09 - loss: 0.2036 - acc: 1.0000 - tp: 0.0000e+00 - tn: 1.0000
  2/425 [..............................] - ETA: 37:20 - loss: 8.1608 - acc: 0.5000 - tp: 0.0000e+00 - tn: 0.5000
…
