batch = 534
Model: "sequential_1"
_________________________________________________________________
Layer (type)                 Output Shape              Param #   
=================================================================
reshape_1 (Reshape)          (None, 1, 6272)           0         
_________________________________________________________________
lstm_1 (LSTM)                (None, 1, 512)            13895680  
_________________________________________________________________
batch_normalization_1 (Batch (None, 1, 512)            2048      
_________________________________________________________________
lstm_2 (LSTM)                (None, 512)               2099200   
_________________________________________________________________
dense_1 (Dense)              (None, 1)                 513       
=================================================================
Total params: 15,997,441
Trainable params: 15,996,417
Non-trainable params: 1,024
_________________________________________________________________
Epoch 1/4

  1/425 [..............................] - ETA: 38:55 - loss: 0.6938 - acc: 0.3052 - tp: 0.4922 - tn: 0.1304
  2/425 [..............................] - ETA: 22:10 - loss: 0.6923 - acc: 0.4363 - tp: 0.6861 - tn: 0.2553
…
