batch = 534
Model: "sequential_1"
_________________________________________________________________
Layer (type)                 Output Shape              Param #   
=================================================================
dense_1 (Dense)              (None, 512)               3211776   
_________________________________________________________________
batch_normalization_1 (Batch (None, 512)               2048      
_________________________________________________________________
dense_2 (Dense)              (None, 512)               262656    
_________________________________________________________________
batch_normalization_2 (Batch (None, 512)               2048      
_________________________________________________________________
dense_3 (Dense)              (None, 512)               262656    
_________________________________________________________________
batch_normalization_3 (Batch (None, 512)               2048      
_________________________________________________________________
dense_4 (Dense)              (None, 512)               262656    
_________________________________________________________________
batch_normalization_4 (Batch (None, 512)               2048      
_________________________________________________________________
dense_5 (Dense)              (None, 512)               262656    
_________________________________________________________________
batch_normalization_5 (Batch (None, 512)               2048      
_________________________________________________________________
reshape_1 (Reshape)          (None, 1, 512)            0         
_________________________________________________________________
lstm_1 (LSTM)                (None, 1)                 2056      
=================================================================
Total params: 4,274,696
Trainable params: 4,269,576
Non-trainable params: 5,120
_________________________________________________________________
Epoch 1/15

  1/425 [..............................] - ETA: 20:57 - loss: 1.8876 - acc: 0.0655 - tp: 0.0655 - tn: 0.0000e+00
  2/425 [..............................] - ETA: 11:11 - loss: 1.8372 - acc: 0.0534 - tp: 0.0534 - tn: 0.0000e+00
…
