Model: "model_1"
__________________________________________________________________________________________________
Layer (type)                    Output Shape         Param #     Connected to                     
==================================================================================================
cnn_input (InputLayer)          (None, 64, 64)       0                                            
__________________________________________________________________________________________________
reshape_1 (Reshape)             (None, 64, 64, 1)    0           cnn_input[0][0]                  
__________________________________________________________________________________________________
batch_normalization_1 (BatchNor (None, 64, 64, 1)    4           reshape_1[0][0]                  
__________________________________________________________________________________________________
conv2d_1 (Conv2D)               (None, 64, 64, 20)   520         batch_normalization_1[0][0]      
__________________________________________________________________________________________________
batch_normalization_2 (BatchNor (None, 64, 64, 20)   80          conv2d_1[0][0]                   
__________________________________________________________________________________________________
max_pooling2d_1 (MaxPooling2D)  (None, 32, 32, 20)   0           batch_normalization_2[0][0]      
__________________________________________________________________________________________________
conv2d_2 (Conv2D)               (None, 32, 32, 40)   7240        max_pooling2d_1[0][0]            
__________________________________________________________________________________________________
batch_normalization_3 (BatchNor (None, 32, 32, 40)   160         conv2d_2[0][0]                   
__________________________________________________________________________________________________
hist_input (InputLayer)         (None, 6272)         0                                            
__________________________________________________________________________________________________
max_pooling2d_2 (MaxPooling2D)  (None, 16, 16, 40)   0           batch_normalization_3[0][0]      
__________________________________________________________________________________________________
batch_normalization_4 (BatchNor (None, 6272)         25088       hist_input[0][0]                 
__________________________________________________________________________________________________
flatten_1 (Flatten)             (None, 10240)        0           max_pooling2d_2[0][0]            
__________________________________________________________________________________________________
dense_2 (Dense)                 (None, 1024)         6423552     batch_normalization_4[0][0]      
__________________________________________________________________________________________________
dense_1 (Dense)                 (None, 256)          2621696     flatten_1[0][0]                  
__________________________________________________________________________________________________
dense_3 (Dense)                 (None, 1024)         1049600     dense_2[0][0]                    
__________________________________________________________________________________________________
coords (InputLayer)             (None, 4)            0                                            
__________________________________________________________________________________________________
concatenate_1 (Concatenate)     (None, 1284)         0           dense_1[0][0]                    
                                                                 dense_3[0][0]                    
                                                                 coords[0][0]                     
__________________________________________________________________________________________________
batch_normalization_5 (BatchNor (None, 1284)         5136        concatenate_1[0][0]              
__________________________________________________________________________________________________
dense_4 (Dense)                 (None, 256)          328960      batch_normalization_5[0][0]      
__________________________________________________________________________________________________
reshape_2 (Reshape)             (None, 1, 256)       0           dense_4[0][0]                    
__________________________________________________________________________________________________
lstm_1 (LSTM)                   (None, 1)            1032        reshape_2[0][0]                  
==================================================================================================
Total params: 10,463,068
Trainable params: 10,447,834
Non-trainable params: 15,234
__________________________________________________________________________________________________
Epoch 1/3

  1/850 [..............................] - ETA: 1:43:54 - loss: 0.3522 - acc: 0.9307 - tp: 0.0000e+00 - tn: 0.9307
…
