batch = 534
Model: "sequential_1"
_________________________________________________________________
Layer (type)                 Output Shape              Param #   
=================================================================
dense_1 (Dense)              (None, 1024)              6423552   
_________________________________________________________________
batch_normalization_1 (Batch (None, 1024)              4096      
_________________________________________________________________
dense_2 (Dense)              (None, 1024)              1049600   
_________________________________________________________________
batch_normalization_2 (Batch (None, 1024)              4096      
_________________________________________________________________
reshape_1 (Reshape)          (None, 1, 1024)           0         
_________________________________________________________________
lstm_1 (LSTM)                (None, 1)                 4104      
=================================================================
Total params: 7,485,448
Trainable params: 7,481,352
Non-trainable params: 4,096
_________________________________________________________________
Epoch 1/5

  1/425 [..............................] - ETA: 15:34 - loss: 1.4205 - acc: 0.1049 - tp: 0.0459 - tn: 1.0000
  2/425 [..............................] - ETA: 8:36 - loss: 0.9989 - acc: 0.3876 - tp: 0.2364 - tn: 0.8573 
…
424/425 [============================>.] - ETA: 0s - loss: 0.3322 - acc: 0.8645 - tp: 0.6648 - tn: 0.5759
425/425 [==============================] - 111s 261ms/step - loss: 0.3324 - acc: 0.8642 - tp: 0.6642 - tn: 0.5768 - val_loss: 2.8334 - val_acc: 0.4179 - val_tp: 0.1198 - val_tn: 0.4138

Epoch 00005: val_tp did not improve from 0.13755
batch = 534
batch = 534
batch = 534
batch = 534
Model: "sequential_1"
_________________________________________________________________
Layer (type)                 Output Shape              Param #   
=================================================================
dense_1 (Dense)              (None, 1024)              6423552   
_________________________________________________________________
batch_normalization_1 (Batch (None, 1024)              4096      
_________________________________________________________________
reshape_1 (Reshape)          (None, 1, 1024)           0         
_________________________________________________________________
lstm_1 (LSTM)                (None, 1)                 4104      
=================================================================
Total params: 6,431,752
Trainable params: 6,429,704
Non-trainable params: 2,048
_________________________________________________________________
batch = 534
Model: "sequential_1"
_________________________________________________________________
Layer (type)                 Output Shape              Param #   
=================================================================
dense_1 (Dense)              (None, 1024)              6423552   
_________________________________________________________________
batch_normalization_1 (Batch (None, 1024)              4096      
_________________________________________________________________
reshape_1 (Reshape)          (None, 1, 1024)           0         
_________________________________________________________________
lstm_1 (LSTM)                (None, 1)                 4104      
=================================================================
Total params: 6,431,752
Trainable params: 6,429,704
Non-trainable params: 2,048
_________________________________________________________________
Epoch 1/5

  1/425 [..............................] - ETA: 13:04 - loss: 0.3303 - acc: 1.0000 - tp: 0.0000e+00 - tn: 1.0000
  2/425 [..............................] - ETA: 7:13 - loss: 0.3387 - acc: 0.9897 - tp: 0.0000e+00 - tn: 1.0000 
…
