batch = 534
Model: "sequential_1"
_________________________________________________________________
Layer (type)                 Output Shape              Param #   
=================================================================
dense_1 (Dense)              (None, 512)               3211776   
_________________________________________________________________
batch_normalization_1 (Batch (None, 512)               2048      
_________________________________________________________________
dense_2 (Dense)              (None, 512)               262656    
_________________________________________________________________
batch_normalization_2 (Batch (None, 512)               2048      
_________________________________________________________________
dense_3 (Dense)              (None, 1)                 513       
=================================================================
Total params: 3,479,041
Trainable params: 3,476,993
Non-trainable params: 2,048
_________________________________________________________________
Epoch 1/4

  1/425 [..............................] - ETA: 11:38 - loss: 0.9978 - acc: 0.3951 - tp: 0.4049 - tn: 0.3868
  2/425 [..............................] - ETA: 6:19 - loss: 0.7073 - acc: 0.6564 - tp: 0.6802 - tn: 0.6328 
…
