batch = 534
Model: "sequential_1"
_________________________________________________________________
Layer (type)                 Output Shape              Param #   
=================================================================
dense_1 (Dense)              (None, 512)               3211776   
_________________________________________________________________
batch_normalization_1 (Batch (None, 512)               2048      
_________________________________________________________________
dense_2 (Dense)              (None, 512)               262656    
_________________________________________________________________
batch_normalization_2 (Batch (None, 512)               2048      
_________________________________________________________________
dense_3 (Dense)              (None, 1)                 513       
=================================================================
Total params: 3,479,041
Trainable params: 3,476,993
Non-trainable params: 2,048
_________________________________________________________________
Epoch 1/4

  1/425 [..............................] - ETA: 9:25 - loss: 0.9195 - acc: 0.4438 - tp: 0.5031 - tn: 0.3538
  2/425 [..............................] - ETA: 5:07 - loss: 1.5703 - acc: 0.3792 - tp: 0.4206 - tn: 0.3209
…
