batch = 534
Model: "sequential_1"
_________________________________________________________________
Layer (type)                 Output Shape              Param #   
=================================================================
dense_1 (Dense)              (None, 512)               3211776   
_________________________________________________________________
batch_normalization_1 (Batch (None, 512)               2048      
_________________________________________________________________
dense_2 (Dense)              (None, 512)               262656    
_________________________________________________________________
batch_normalization_2 (Batch (None, 512)               2048      
_________________________________________________________________
dense_3 (Dense)              (None, 1)                 513       
=================================================================
Total params: 3,479,041
Trainable params: 3,476,993
Non-trainable params: 2,048
_________________________________________________________________
Epoch 1/4

  1/420 [..............................] - ETA: 9:02 - loss: 0.7495 - acc: 0.5936 - tp: 0.5465 - tn: 0.6377
  2/420 [..............................] - ETA: 4:55 - loss: 2.0368 - acc: 0.4223 - tp: 0.3334 - tn: 0.4980
…
