batch = 534
batch = 534
batch = 534
batch = 534
batch = 534
batch = 534
Model: "sequential_1"
_________________________________________________________________
Layer (type)                 Output Shape              Param #   
=================================================================
dense_1 (Dense)              (None, 2048)              12847104  
_________________________________________________________________
batch_normalization_1 (Batch (None, 2048)              8192      
_________________________________________________________________
reshape_1 (Reshape)          (None, 1, 2048)           0         
_________________________________________________________________
lstm_1 (LSTM)                (None, 1)                 8200      
=================================================================
Total params: 12,863,496
Trainable params: 12,859,400
Non-trainable params: 4,096
_________________________________________________________________
Epoch 1/5
batch = 534
Model: "sequential_1"
_________________________________________________________________
Layer (type)                 Output Shape              Param #   
=================================================================
dense_1 (Dense)              (None, 2048)              12847104  
_________________________________________________________________
batch_normalization_1 (Batch (None, 2048)              8192      
_________________________________________________________________
reshape_1 (Reshape)          (None, 1, 2048)           0         
_________________________________________________________________
lstm_1 (LSTM)                (None, 1)                 8200      
=================================================================
Total params: 12,863,496
Trainable params: 12,859,400
Non-trainable params: 4,096
_________________________________________________________________
Epoch 1/5

  1/425 [..............................] - ETA: 24:36 - loss: 0.8528 - acc: 0.4401 - tp: 0.0000e+00 - tn: 1.0000
  2/425 [..............................] - ETA: 14:45 - loss: 0.6106 - acc: 0.6732 - tp: 0.0000e+00 - tn: 0.9532
…
