batch = 534
Model: "sequential_1"
_________________________________________________________________
Layer (type)                 Output Shape              Param #   
=================================================================
dense_1 (Dense)              (None, 2048)              12847104  
_________________________________________________________________
batch_normalization_1 (Batch (None, 2048)              8192      
_________________________________________________________________
dense_2 (Dense)              (None, 2048)              4196352   
_________________________________________________________________
batch_normalization_2 (Batch (None, 2048)              8192      
_________________________________________________________________
dense_3 (Dense)              (None, 2048)              4196352   
_________________________________________________________________
batch_normalization_3 (Batch (None, 2048)              8192      
_________________________________________________________________
dense_4 (Dense)              (None, 2048)              4196352   
_________________________________________________________________
batch_normalization_4 (Batch (None, 2048)              8192      
_________________________________________________________________
reshape_1 (Reshape)          (None, 1, 2048)           0         
_________________________________________________________________
lstm_1 (LSTM)                (None, 1)                 8200      
=================================================================
Total params: 25,477,128
Trainable params: 25,460,744
Non-trainable params: 16,384
_________________________________________________________________
Epoch 1/5

  1/425 [..............................] - ETA: 38:29 - loss: 0.3498 - acc: 0.9569 - tp: 0.3636 - tn: 0.9694
  2/425 [..............................] - ETA: 23:36 - loss: 3.6627 - acc: 0.5843 - tp: 0.2851 - tn: 0.6012
…
