batch = 534
Model: "sequential_1"
_________________________________________________________________
Layer (type)                 Output Shape              Param #   
=================================================================
dense_1 (Dense)              (None, 2048)              12847104  
_________________________________________________________________
batch_normalization_1 (Batch (None, 2048)              8192      
_________________________________________________________________
dense_2 (Dense)              (None, 2048)              4196352   
_________________________________________________________________
batch_normalization_2 (Batch (None, 2048)              8192      
_________________________________________________________________
dense_3 (Dense)              (None, 2048)              4196352   
_________________________________________________________________
batch_normalization_3 (Batch (None, 2048)              8192      
_________________________________________________________________
dense_4 (Dense)              (None, 2048)              4196352   
_________________________________________________________________
batch_normalization_4 (Batch (None, 2048)              8192      
_________________________________________________________________
dense_5 (Dense)              (None, 2048)              4196352   
_________________________________________________________________
batch_normalization_5 (Batch (None, 2048)              8192      
_________________________________________________________________
dense_6 (Dense)              (None, 2048)              4196352   
_________________________________________________________________
batch_normalization_6 (Batch (None, 2048)              8192      
_________________________________________________________________
dense_7 (Dense)              (None, 2048)              4196352   
_________________________________________________________________
batch_normalization_7 (Batch (None, 2048)              8192      
_________________________________________________________________
dense_8 (Dense)              (None, 2048)              4196352   
_________________________________________________________________
batch_normalization_8 (Batch (None, 2048)              8192      
_________________________________________________________________
dense_9 (Dense)              (None, 2048)              4196352   
_________________________________________________________________
batch_normalization_9 (Batch (None, 2048)              8192      
_________________________________________________________________
reshape_1 (Reshape)          (None, 1, 2048)           0         
_________________________________________________________________
lstm_1 (LSTM)                (None, 1)                 8200      
=================================================================
Total params: 46,499,848
Trainable params: 46,462,984
Non-trainable params: 36,864
_________________________________________________________________
Epoch 1/5

  1/425 [..............................] - ETA: 54:29 - loss: 0.5081 - acc: 0.8165 - tp: 0.0806 - tn: 0.9131
  2/425 [..............................] - ETA: 33:04 - loss: 0.4598 - acc: 0.7219 - tp: 0.0403 - tn: 0.7702
…
 73/420 [====>.........................] - ETA: 11:26 - loss: 0.8663 - acc: 0.5136 - tp: 0.0225 - tn: 0.6832
 74/420 [====>.........................] - ETA: 11:25 - loss: 0.8637 - acc: 0.5178 - tp: 0.0227 - tn: 0.6871
 75/420 [====>.........................] - ETA: 11:23 - loss: 0.8660 - acc: 0.5122 - tp: 0.0237 - tn: 0.6779
 76/420 [====>.........................] - ETA: 11:22 - loss: 0.8691 - acc: 0.5057 - tp: 0.0236 - tn: 0.6690batch = 534
Model: "sequential_1"
_________________________________________________________________
Layer (type)                 Output Shape              Param #   
=================================================================
dense_1 (Dense)              (None, 2048)              12847104  
_________________________________________________________________
batch_normalization_1 (Batch (None, 2048)              8192      
_________________________________________________________________
dense_2 (Dense)              (None, 2048)              4196352   
_________________________________________________________________
batch_normalization_2 (Batch (None, 2048)              8192      
_________________________________________________________________
dense_3 (Dense)              (None, 2048)              4196352   
_________________________________________________________________
batch_normalization_3 (Batch (None, 2048)              8192      
_________________________________________________________________
dense_4 (Dense)              (None, 2048)              4196352   
_________________________________________________________________
batch_normalization_4 (Batch (None, 2048)              8192      
_________________________________________________________________
dense_5 (Dense)              (None, 2048)              4196352   
_________________________________________________________________
batch_normalization_5 (Batch (None, 2048)              8192      
_________________________________________________________________
dense_6 (Dense)              (None, 2048)              4196352   
_________________________________________________________________
batch_normalization_6 (Batch (None, 2048)              8192      
_________________________________________________________________
dense_7 (Dense)              (None, 2048)              4196352   
_________________________________________________________________
batch_normalization_7 (Batch (None, 2048)              8192      
_________________________________________________________________
dense_8 (Dense)              (None, 2048)              4196352   
_________________________________________________________________
batch_normalization_8 (Batch (None, 2048)              8192      
_________________________________________________________________
dense_9 (Dense)              (None, 2048)              4196352   
_________________________________________________________________
batch_normalization_9 (Batch (None, 2048)              8192      
_________________________________________________________________
reshape_1 (Reshape)          (None, 1, 2048)           0         
_________________________________________________________________
lstm_1 (LSTM)                (None, 1)                 8200      
=================================================================
Total params: 46,499,848
Trainable params: 46,462,984
Non-trainable params: 36,864
_________________________________________________________________
batch = 534
Model: "sequential_1"
_________________________________________________________________
Layer (type)                 Output Shape              Param #   
=================================================================
dense_1 (Dense)              (None, 2048)              12847104  
_________________________________________________________________
batch_normalization_1 (Batch (None, 2048)              8192      
_________________________________________________________________
dense_2 (Dense)              (None, 2048)              4196352   
_________________________________________________________________
batch_normalization_2 (Batch (None, 2048)              8192      
_________________________________________________________________
dense_3 (Dense)              (None, 2048)              4196352   
_________________________________________________________________
batch_normalization_3 (Batch (None, 2048)              8192      
_________________________________________________________________
dense_4 (Dense)              (None, 2048)              4196352   
_________________________________________________________________
batch_normalization_4 (Batch (None, 2048)              8192      
_________________________________________________________________
dense_5 (Dense)              (None, 2048)              4196352   
_________________________________________________________________
batch_normalization_5 (Batch (None, 2048)              8192      
_________________________________________________________________
dense_6 (Dense)              (None, 2048)              4196352   
_________________________________________________________________
batch_normalization_6 (Batch (None, 2048)              8192      
_________________________________________________________________
dense_7 (Dense)              (None, 2048)              4196352   
_________________________________________________________________
batch_normalization_7 (Batch (None, 2048)              8192      
_________________________________________________________________
dense_8 (Dense)              (None, 2048)              4196352   
_________________________________________________________________
batch_normalization_8 (Batch (None, 2048)              8192      
_________________________________________________________________
dense_9 (Dense)              (None, 2048)              4196352   
_________________________________________________________________
batch_normalization_9 (Batch (None, 2048)              8192      
_________________________________________________________________
reshape_1 (Reshape)          (None, 1, 2048)           0         
_________________________________________________________________
lstm_1 (LSTM)                (None, 1)                 8200      
=================================================================
Total params: 46,499,848
Trainable params: 46,462,984
Non-trainable params: 36,864
_________________________________________________________________
Epoch 1/5

  1/425 [..............................] - ETA: 1:05:27 - loss: 1.8636 - acc: 0.0618 - tp: 0.0618 - tn: 0.0000e+00
  2/425 [..............................] - ETA: 39:54 - loss: 2.9980 - acc: 0.1929 - tp: 0.1829 - tn: 0.2039      
…
