batch = 534
Model: "sequential_1"
_________________________________________________________________
Layer (type)                 Output Shape              Param #   
=================================================================
dense_1 (Dense)              (None, 1024)              6423552   
_________________________________________________________________
batch_normalization_1 (Batch (None, 1024)              4096      
_________________________________________________________________
dense_2 (Dense)              (None, 1024)              1049600   
_________________________________________________________________
batch_normalization_2 (Batch (None, 1024)              4096      
_________________________________________________________________
reshape_1 (Reshape)          (None, 1, 1024)           0         
_________________________________________________________________
lstm_1 (LSTM)                (None, 1)                 4104      
=================================================================
Total params: 7,485,448
Trainable params: 7,481,352
Non-trainable params: 4,096
_________________________________________________________________
Epoch 1/15

  1/425 [..............................] - ETA: 16:09 - loss: 1.2721 - acc: 0.0468 - tp: 0.0020 - tn: 1.0000
  2/425 [..............................] - ETA: 8:54 - loss: 1.0989 - acc: 0.1910 - tp: 0.0052 - tn: 0.9944 
…
