batch = 534
Model: "sequential_1"
_________________________________________________________________
Layer (type)                 Output Shape              Param #   
=================================================================
dense_1 (Dense)              (None, 512)               3211776   
_________________________________________________________________
batch_normalization_1 (Batch (None, 512)               2048      
_________________________________________________________________
dense_2 (Dense)              (None, 512)               262656    
_________________________________________________________________
batch_normalization_2 (Batch (None, 512)               2048      
_________________________________________________________________
reshape_1 (Reshape)          (None, 1, 512)            0         
_________________________________________________________________
lstm_1 (LSTM)                (None, 1)                 2056      
=================================================================
Total params: 3,480,584
Trainable params: 3,478,536
Non-trainable params: 2,048
_________________________________________________________________
Epoch 1/4

  1/425 [..............................] - ETA: 19:06 - loss: 1.3463 - acc: 0.1910 - tp: 0.0270 - tn: 1.0000
  2/425 [..............................] - ETA: 9:59 - loss: 1.0855 - acc: 0.3324 - tp: 0.0342 - tn: 0.9161 
…
