batch = 534
Model: "sequential_1"
_________________________________________________________________
Layer (type)                 Output Shape              Param #   
=================================================================
dense_1 (Dense)              (None, 512)               3211776   
_________________________________________________________________
batch_normalization_1 (Batch (None, 512)               2048      
_________________________________________________________________
dense_2 (Dense)              (None, 512)               262656    
_________________________________________________________________
batch_normalization_2 (Batch (None, 512)               2048      
_________________________________________________________________
reshape_1 (Reshape)          (None, 1, 512)            0         
_________________________________________________________________
simple_rnn_1 (SimpleRNN)     (None, 1)                 514       
=================================================================
Total params: 3,479,042
Trainable params: 3,476,994
Non-trainable params: 2,048
_________________________________________________________________
Epoch 1/4

  1/425 [..............................] - ETA: 14:04 - loss: 0.7974 - acc: 0.5056 - tp: 0.0000e+00 - tn: 0.5056
  2/425 [..............................] - ETA: 7:28 - loss: 1.1555 - acc: 0.5337 - tp: 0.0000e+00 - tn: 0.5337 
…
