batch = 534
Model: "sequential_1"
_________________________________________________________________
Layer (type)                 Output Shape              Param #   
=================================================================
dense_1 (Dense)              (None, 512)               3211776   
_________________________________________________________________
batch_normalization_1 (Batch (None, 512)               2048      
_________________________________________________________________
dense_2 (Dense)              (None, 512)               262656    
_________________________________________________________________
batch_normalization_2 (Batch (None, 512)               2048      
_________________________________________________________________
dense_3 (Dense)              (None, 512)               262656    
_________________________________________________________________
batch_normalization_3 (Batch (None, 512)               2048      
_________________________________________________________________
reshape_1 (Reshape)          (None, 1, 512)            0         
_________________________________________________________________
lstm_1 (LSTM)                (None, 1)                 2056      
=================================================================
Total params: 3,745,288
Trainable params: 3,742,216
Non-trainable params: 3,072
_________________________________________________________________
Epoch 1/4

  1/425 [..............................] - ETA: 31:11 - loss: 2.8606 - acc: 0.1461 - tp: 0.1461 - tn: 0.0000e+00
  2/425 [..............................] - ETA: 16:03 - loss: 1.9328 - acc: 0.4850 - tp: 0.0730 - tn: 0.4944    
…
