batch = 534
Model: "sequential_1"
_________________________________________________________________
Layer (type)                 Output Shape              Param #   
=================================================================
reshape_1 (Reshape)          (None, 1, 6272)           0         
_________________________________________________________________
lstm_1 (LSTM)                (None, 1, 512)            13895680  
_________________________________________________________________
batch_normalization_1 (Batch (None, 1, 512)            2048      
_________________________________________________________________
lstm_2 (LSTM)                (None, 512)               2099200   
_________________________________________________________________
dense_1 (Dense)              (None, 1)                 513       
=================================================================
Total params: 15,997,441
Trainable params: 15,996,417
Non-trainable params: 1,024
_________________________________________________________________
Epoch 1/4

  1/420 [..............................] - ETA: 36:10 - loss: 0.6942 - acc: 0.2715 - tp: 0.7578 - tn: 0.0617
  2/420 [..............................] - ETA: 20:22 - loss: 0.6931 - acc: 0.4148 - tp: 0.5872 - tn: 0.3254
…
