batch = 534
Model: "sequential_1"
_________________________________________________________________
Layer (type)                 Output Shape              Param #   
=================================================================
dense_1 (Dense)              (None, 1024)              6423552   
_________________________________________________________________
batch_normalization_1 (Batch (None, 1024)              4096      
_________________________________________________________________
dense_2 (Dense)              (None, 1024)              1049600   
_________________________________________________________________
batch_normalization_2 (Batch (None, 1024)              4096      
_________________________________________________________________
reshape_1 (Reshape)          (None, 1, 1024)           0         
_________________________________________________________________
lstm_1 (LSTM)                (None, 1)                 4104      
=================================================================
Total params: 7,485,448
Trainable params: 7,481,352
Non-trainable params: 4,096
_________________________________________________________________
Epoch 1/5

  1/425 [..............................] - ETA: 17:05 - loss: 1.3570 - acc: 0.0000e+00 - tp: 0.0000e+00 - tn: 0.0000e+00
  2/425 [..............................] - ETA: 9:27 - loss: 0.8679 - acc: 0.3090 - tp: 0.0000e+00 - tn: 0.3090         
…
 23/425 [>.............................] - ETA: 1:40 - loss: 0.3593 - acc: 0.9009 - tp: 0.6943 - tn: 0.5162
 24/425 [>.............................] - ETA: 1:39 - loss: 0.3620 - acc: 0.8974 - tp: 0.7070 - tn: 0.5272
 25/425 [>.............................] - ETA: 1:39 - loss: 0.3555 - acc: 0.8988 - tp: 0.6787 - tn: 0.5434
 26/425 [>.............................] - ETA: 1:38 - loss: 0.3523 - acc: 0.8993 - tp: 0.6526 - tn: 0.5604batch = 534
Model: "sequential_1"
_________________________________________________________________
Layer (type)                 Output Shape              Param #   
=================================================================
dense_1 (Dense)              (None, 1024)              6423552   
_________________________________________________________________
batch_normalization_1 (Batch (None, 1024)              4096      
_________________________________________________________________
dense_2 (Dense)              (None, 1024)              1049600   
_________________________________________________________________
batch_normalization_2 (Batch (None, 1024)              4096      
_________________________________________________________________
dense_3 (Dense)              (None, 1024)              1049600   
_________________________________________________________________
batch_normalization_3 (Batch (None, 1024)              4096      
_________________________________________________________________
dense_4 (Dense)              (None, 1024)              1049600   
_________________________________________________________________
batch_normalization_4 (Batch (None, 1024)              4096      
_________________________________________________________________
dense_5 (Dense)              (None, 1024)              1049600   
_________________________________________________________________
batch_normalization_5 (Batch (None, 1024)              4096      
_________________________________________________________________
dense_6 (Dense)              (None, 1024)              1049600   
_________________________________________________________________
batch_normalization_6 (Batch (None, 1024)              4096      
_________________________________________________________________
dense_7 (Dense)              (None, 1024)              1049600   
_________________________________________________________________
batch_normalization_7 (Batch (None, 1024)              4096      
_________________________________________________________________
dense_8 (Dense)              (None, 1024)              1049600   
_________________________________________________________________
batch_normalization_8 (Batch (None, 1024)              4096      
_________________________________________________________________
dense_9 (Dense)              (None, 1024)              1049600   
_________________________________________________________________
batch_normalization_9 (Batch (None, 1024)              4096      
_________________________________________________________________
reshape_1 (Reshape)          (None, 1, 1024)           0         
_________________________________________________________________
lstm_1 (LSTM)                (None, 1)                 4104      
=================================================================
Total params: 14,861,320
Trainable params: 14,842,888
Non-trainable params: 18,432
_________________________________________________________________
Epoch 1/5

  1/425 [..............................] - ETA: 35:35 - loss: 1.7871 - acc: 0.0805 - tp: 0.0805 - tn: 0.0000e+00
  2/425 [..............................] - ETA: 19:40 - loss: 1.0744 - acc: 0.4625 - tp: 0.0403 - tn: 0.4223    
…
