batch = 534
batch = 534
batch = 534
Model: "sequential_1"
_________________________________________________________________
Layer (type)                 Output Shape              Param #   
=================================================================
dense_1 (Dense)              (None, 1024)              6423552   
_________________________________________________________________
batch_normalization_1 (Batch (None, 1024)              4096      
_________________________________________________________________
dense_2 (Dense)              (None, 1024)              1049600   
_________________________________________________________________
batch_normalization_2 (Batch (None, 1024)              4096      
_________________________________________________________________
dense_3 (Dense)              (None, 1024)              1049600   
_________________________________________________________________
batch_normalization_3 (Batch (None, 1024)              4096      
_________________________________________________________________
dense_4 (Dense)              (None, 1024)              1049600   
_________________________________________________________________
batch_normalization_4 (Batch (None, 1024)              4096      
_________________________________________________________________
dense_5 (Dense)              (None, 1024)              1049600   
_________________________________________________________________
batch_normalization_5 (Batch (None, 1024)              4096      
_________________________________________________________________
dense_6 (Dense)              (None, 1024)              1049600   
_________________________________________________________________
batch_normalization_6 (Batch (None, 1024)              4096      
_________________________________________________________________
dense_7 (Dense)              (None, 1024)              1049600   
_________________________________________________________________
batch_normalization_7 (Batch (None, 1024)              4096      
_________________________________________________________________
dense_8 (Dense)              (None, 1024)              1049600   
_________________________________________________________________
batch_normalization_8 (Batch (None, 1024)              4096      
_________________________________________________________________
dense_9 (Dense)              (None, 1024)              1049600   
_________________________________________________________________
batch_normalization_9 (Batch (None, 1024)              4096      
_________________________________________________________________
reshape_1 (Reshape)          (None, 1, 1024)           0         
_________________________________________________________________
lstm_1 (LSTM)                (None, 1)                 4104      
=================================================================
Total params: 14,861,320
Trainable params: 14,842,888
Non-trainable params: 18,432
_________________________________________________________________
Epoch 1/5

  1/465 [..............................] - ETA: 45:43 - loss: 0.6205 - acc: 0.7584 - tp: 0.0909 - tn: 0.9316
  2/465 [..............................] - ETA: 25:26 - loss: 0.7441 - acc: 0.7210 - tp: 0.2621 - tn: 0.8329
…
