batch = 534
Model: "model_1"
_________________________________________________________________
Layer (type)                 Output Shape              Param #   
=================================================================
input_1 (InputLayer)         (None, 6276)              0         
_________________________________________________________________
dense_1 (Dense)              (None, 1024)              6427648   
_________________________________________________________________
dense_2 (Dense)              (None, 1024)              1049600   
_________________________________________________________________
batch_normalization_1 (Batch (None, 1024)              4096      
_________________________________________________________________
dense_3 (Dense)              (None, 1024)              1049600   
_________________________________________________________________
batch_normalization_2 (Batch (None, 1024)              4096      
_________________________________________________________________
dense_4 (Dense)              (None, 1024)              1049600   
_________________________________________________________________
batch_normalization_3 (Batch (None, 1024)              4096      
_________________________________________________________________
dense_5 (Dense)              (None, 1024)              1049600   
_________________________________________________________________
batch_normalization_4 (Batch (None, 1024)              4096      
_________________________________________________________________
reshape_1 (Reshape)          (None, 1, 1024)           0         
_________________________________________________________________
lstm_1 (LSTM)                (None, 1)                 4104      
=================================================================
Total params: 10,646,536
Trainable params: 10,638,344
Non-trainable params: 8,192
_________________________________________________________________
Epoch 1/5
batch = 534
Model: "model_1"
_________________________________________________________________
Layer (type)                 Output Shape              Param #   
=================================================================
input_1 (InputLayer)         (None, 6276)              0         
_________________________________________________________________
dense_1 (Dense)              (None, 1024)              6427648   
_________________________________________________________________
dense_2 (Dense)              (None, 1024)              1049600   
_________________________________________________________________
batch_normalization_1 (Batch (None, 1024)              4096      
_________________________________________________________________
dense_3 (Dense)              (None, 1024)              1049600   
_________________________________________________________________
batch_normalization_2 (Batch (None, 1024)              4096      
_________________________________________________________________
dense_4 (Dense)              (None, 1024)              1049600   
_________________________________________________________________
batch_normalization_3 (Batch (None, 1024)              4096      
_________________________________________________________________
dense_5 (Dense)              (None, 1024)              1049600   
_________________________________________________________________
batch_normalization_4 (Batch (None, 1024)              4096      
_________________________________________________________________
reshape_1 (Reshape)          (None, 1, 1024)           0         
_________________________________________________________________
lstm_1 (LSTM)                (None, 1)                 4104      
=================================================================
Total params: 10,646,536
Trainable params: 10,638,344
Non-trainable params: 8,192
_________________________________________________________________
Epoch 1/5

  1/465 [..............................] - ETA: 24:41 - loss: 1.6924 - acc: 0.1217 - tp: 0.0843 - tn: 0.9167
  2/465 [..............................] - ETA: 13:46 - loss: 1.8512 - acc: 0.3230 - tp: 0.1022 - tn: 0.8416
…
463/465 [============================>.] - ETA: 0s - loss: 0.3797 - acc: 0.8761 - tp: 0.5885 - tn: 0.5604
464/465 [============================>.] - ETA: 0s - loss: 0.3804 - acc: 0.8753 - tp: 0.5893 - tn: 0.5601
465/465 [==============================] - 188s 404ms/step - loss: 0.3820 - acc: 0.8739 - tp: 0.5902 - tn: 0.5593 - val_loss: 0.6965 - val_acc: 0.5152 - val_tp: 0.3615 - val_tn: 0.4137

Epoch 00005: val_acc did not improve from 0.62678
batch = 534
Model: "model_1"
_________________________________________________________________
Layer (type)                 Output Shape              Param #   
=================================================================
input_1 (InputLayer)         (None, 6276)              0         
_________________________________________________________________
dense_1 (Dense)              (None, 1024)              6427648   
_________________________________________________________________
dense_2 (Dense)              (None, 1024)              1049600   
_________________________________________________________________
batch_normalization_1 (Batch (None, 1024)              4096      
_________________________________________________________________
dense_3 (Dense)              (None, 1024)              1049600   
_________________________________________________________________
batch_normalization_2 (Batch (None, 1024)              4096      
_________________________________________________________________
dense_4 (Dense)              (None, 1024)              1049600   
_________________________________________________________________
batch_normalization_3 (Batch (None, 1024)              4096      
_________________________________________________________________
dense_5 (Dense)              (None, 1024)              1049600   
_________________________________________________________________
batch_normalization_4 (Batch (None, 1024)              4096      
_________________________________________________________________
reshape_1 (Reshape)          (None, 1, 1024)           0         
_________________________________________________________________
lstm_1 (LSTM)                (None, 1)                 4104      
=================================================================
Total params: 10,646,536
Trainable params: 10,638,344
Non-trainable params: 8,192
_________________________________________________________________
Epoch 1/5

  1/465 [..............................] - ETA: 25:26 - loss: 1.6114 - acc: 0.0674 - tp: 0.0674 - tn: 0.0000e+00
  2/465 [..............................] - ETA: 14:09 - loss: 2.8114 - acc: 0.1507 - tp: 0.1507 - tn: 0.0000e+00
…
 23/465 [>.............................] - ETA: 2:47 - loss: 0.7454 - acc: 0.5839 - tp: 0.2268 - tn: 0.6929
 24/465 [>.............................] - ETA: 2:46 - loss: 0.7378 - acc: 0.5912 - tp: 0.2363 - tn: 0.6959
 25/465 [>.............................] - ETA: 2:46 - loss: 0.7293 - acc: 0.5996 - tp: 0.2269 - tn: 0.7002batch = 534
Model: "model_1"
__________________________________________________________________________________________________
Layer (type)                    Output Shape         Param #     Connected to                     
==================================================================================================
input_1 (InputLayer)            (None, 6272)         0                                            
__________________________________________________________________________________________________
dense_1 (Dense)                 (None, 1024)         6423552     input_1[0][0]                    
__________________________________________________________________________________________________
dense_2 (Dense)                 (None, 1024)         1049600     dense_1[0][0]                    
__________________________________________________________________________________________________
batch_normalization_1 (BatchNor (None, 1024)         4096        dense_2[0][0]                    
__________________________________________________________________________________________________
dense_3 (Dense)                 (None, 1024)         1049600     batch_normalization_1[0][0]      
__________________________________________________________________________________________________
batch_normalization_2 (BatchNor (None, 1024)         4096        dense_3[0][0]                    
__________________________________________________________________________________________________
dense_4 (Dense)                 (None, 1024)         1049600     batch_normalization_2[0][0]      
__________________________________________________________________________________________________
batch_normalization_3 (BatchNor (None, 1024)         4096        dense_4[0][0]                    
__________________________________________________________________________________________________
dense_5 (Dense)                 (None, 1024)         1049600     batch_normalization_3[0][0]      
__________________________________________________________________________________________________
input_2 (InputLayer)            (None, 4)            0                                            
__________________________________________________________________________________________________
batch_normalization_4 (BatchNor (None, 1024)         4096        dense_5[0][0]                    
__________________________________________________________________________________________________
concatenate_1 (Concatenate)     (None, 1028)         0           input_2[0][0]                    
                                                                 batch_normalization_4[0][0]      
__________________________________________________________________________________________________
dense_6 (Dense)                 (None, 256)          263424      concatenate_1[0][0]              
__________________________________________________________________________________________________
reshape_1 (Reshape)             (None, 1, 256)       0           dense_6[0][0]                    
__________________________________________________________________________________________________
lstm_1 (LSTM)                   (None, 1)            1032        reshape_1[0][0]                  
==================================================================================================
Total params: 10,902,792
Trainable params: 10,894,600
Non-trainable params: 8,192
__________________________________________________________________________________________________
Epoch 1/20

  1/465 [..............................] - ETA: 28:47 - loss: 0.3987 - acc: 0.8914 - tp: 0.0000e+00 - tn: 0.9979
…
