batch = 534
Model: "sequential_1"
_________________________________________________________________
Layer (type)                 Output Shape              Param #   
=================================================================
dense_1 (Dense)              (None, 1024)              6423552   
_________________________________________________________________
batch_normalization_1 (Batch (None, 1024)              4096      
_________________________________________________________________
dense_2 (Dense)              (None, 1024)              1049600   
_________________________________________________________________
batch_normalization_2 (Batch (None, 1024)              4096      
_________________________________________________________________
dense_3 (Dense)              (None, 1024)              1049600   
_________________________________________________________________
batch_normalization_3 (Batch (None, 1024)              4096      
_________________________________________________________________
dense_4 (Dense)              (None, 1024)              1049600   
_________________________________________________________________
batch_normalization_4 (Batch (None, 1024)              4096      
_________________________________________________________________
reshape_1 (Reshape)          (None, 1, 1024)           0         
_________________________________________________________________
lstm_1 (LSTM)                (None, 1)                 4104      
=================================================================
Total params: 9,592,840
Trainable params: 9,584,648
Non-trainable params: 8,192
_________________________________________________________________
Epoch 1/5

  1/465 [..............................] - ETA: 27:20 - loss: 0.3481 - acc: 0.9082 - tp: 0.0000e+00 - tn: 0.9082
  2/465 [..............................] - ETA: 15:11 - loss: 0.6584 - acc: 0.7659 - tp: 0.1415 - tn: 0.9251    
…
 895/1395 [==================>...........] - ETA: 1:54 - loss: 1.4633 - acc: 0.5209 - tp: 0.1668 - tn: 0.4313
 896/1395 [==================>...........] - ETA: 1:54 - loss: 1.4622 - acc: 0.5214 - tp: 0.1666 - tn: 0.4319
 897/1395 [==================>...........] - ETA: 1:53 - loss: 1.4615 - acc: 0.5216 - tp: 0.1664 - tn: 0.4325
 898/1395 [==================>...........] - ETA: 1:53 - loss: 1.4605 - acc: 0.5219 - tp: 0.1662 - tn: 0.4331batch = 178
Model: "sequential_1"
_________________________________________________________________
Layer (type)                 Output Shape              Param #   
=================================================================
dense_1 (Dense)              (None, 1024)              6423552   
_________________________________________________________________
batch_normalization_1 (Batch (None, 1024)              4096      
_________________________________________________________________
dense_2 (Dense)              (None, 1024)              1049600   
_________________________________________________________________
batch_normalization_2 (Batch (None, 1024)              4096      
_________________________________________________________________
dense_3 (Dense)              (None, 1024)              1049600   
_________________________________________________________________
batch_normalization_3 (Batch (None, 1024)              4096      
_________________________________________________________________
dense_4 (Dense)              (None, 1024)              1049600   
_________________________________________________________________
batch_normalization_4 (Batch (None, 1024)              4096      
_________________________________________________________________
reshape_1 (Reshape)          (None, 1, 1024)           0         
_________________________________________________________________
lstm_1 (LSTM)                (None, 1)                 4104      
=================================================================
Total params: 9,592,840
Trainable params: 9,584,648
Non-trainable params: 8,192
_________________________________________________________________
batch = 89
Model: "sequential_1"
_________________________________________________________________
Layer (type)                 Output Shape              Param #   
=================================================================
dense_1 (Dense)              (None, 1024)              6423552   
_________________________________________________________________
batch_normalization_1 (Batch (None, 1024)              4096      
_________________________________________________________________
dense_2 (Dense)              (None, 1024)              1049600   
_________________________________________________________________
batch_normalization_2 (Batch (None, 1024)              4096      
_________________________________________________________________
dense_3 (Dense)              (None, 1024)              1049600   
_________________________________________________________________
batch_normalization_3 (Batch (None, 1024)              4096      
_________________________________________________________________
dense_4 (Dense)              (None, 1024)              1049600   
_________________________________________________________________
batch_normalization_4 (Batch (None, 1024)              4096      
_________________________________________________________________
reshape_1 (Reshape)          (None, 1, 1024)           0         
_________________________________________________________________
lstm_1 (LSTM)                (None, 1)                 4104      
=================================================================
Total params: 9,592,840
Trainable params: 9,584,648
Non-trainable params: 8,192
_________________________________________________________________
Epoch 1/10

   1/2790 [..............................] - ETA: 2:36:24 - loss: 0.3406 - acc: 0.9551 - tp: 0.0000e+00 - tn: 0.9551
   2/2790 [..............................] - ETA: 1:21:59 - loss: 2.4908 - acc: 0.6124 - tp: 0.1348 - tn: 0.4775    
…
