Combine Model

__________________________________________________________________________________________________
Layer (type)                    Output Shape         Param #     Connected to                     
==================================================================================================
cnn_input (InputLayer)          (None, 4096)         0                                            
__________________________________________________________________________________________________
reshape_1 (Reshape)             (None, 64, 64, 1)    0           cnn_input[0][0]                  
__________________________________________________________________________________________________
batch_normalization_1 (BatchNor (None, 64, 64, 1)    4           reshape_1[0][0]                  
__________________________________________________________________________________________________
conv2d_1 (Conv2D)               (None, 64, 64, 20)   520         batch_normalization_1[0][0]      
__________________________________________________________________________________________________
batch_normalization_2 (BatchNor (None, 64, 64, 20)   80          conv2d_1[0][0]                   
__________________________________________________________________________________________________
max_pooling2d_1 (MaxPooling2D)  (None, 32, 32, 20)   0           batch_normalization_2[0][0]      
__________________________________________________________________________________________________
conv2d_2 (Conv2D)               (None, 32, 32, 40)   7240        max_pooling2d_1[0][0]            
__________________________________________________________________________________________________
batch_normalization_3 (BatchNor (None, 32, 32, 40)   160         conv2d_2[0][0]                   
__________________________________________________________________________________________________
max_pooling2d_2 (MaxPooling2D)  (None, 16, 16, 40)   0           batch_normalization_3[0][0]      
__________________________________________________________________________________________________
hist_input (InputLayer)         (None, 6272)         0                                            
__________________________________________________________________________________________________
flatten_1 (Flatten)             (None, 10240)        0           max_pooling2d_2[0][0]            
__________________________________________________________________________________________________
batch_normalization_4 (BatchNor (None, 6272)         25088       hist_input[0][0]                 
__________________________________________________________________________________________________
dense_1 (Dense)                 (None, 512)          5243392     flatten_1[0][0]                  
__________________________________________________________________________________________________
dense_2 (Dense)                 (None, 512)          3211776     batch_normalization_4[0][0]      
__________________________________________________________________________________________________
concatenate_1 (Concatenate)     (None, 1024)         0           dense_1[0][0]                    
                                                                 dense_2[0][0]                    
__________________________________________________________________________________________________
batch_normalization_5 (BatchNor (None, 1024)         4096        concatenate_1[0][0]              
__________________________________________________________________________________________________
reshape_2 (Reshape)             (None, 1, 1024)      0           batch_normalization_5[0][0]      
__________________________________________________________________________________________________
lstm_1 (LSTM)                   (None, 256)          1311744     reshape_2[0][0]                  
__________________________________________________________________________________________________
dense_3 (Dense)                 (None, 1)            257         lstm_1[0][0]                     
==================================================================================================
Total params: 9,804,357
Trainable params: 9,789,643
Non-trainable params: 14,714
__________________________________________________________________________________________________
Epoch 1/2

   1/2800 [..............................] - ETA: 6:26:21 - loss: 0.6506 - acc: 0.7472
…
