Basic network for baselines on histogram data
batch = 623
_________________________________________________________________
Layer (type)                 Output Shape              Param #   
=================================================================
dense_1 (Dense)              (None, 512)               3211776   
_________________________________________________________________
batch_normalization_1 (Batch (None, 512)               2048      
_________________________________________________________________
dense_2 (Dense)              (None, 512)               262656    
_________________________________________________________________
batch_normalization_2 (Batch (None, 512)               2048      
_________________________________________________________________
dense_3 (Dense)              (None, 1)                 513       
=================================================================
Total params: 3,479,041
Trainable params: 3,476,993
Non-trainable params: 2,048
_________________________________________________________________
Epoch 1/3

   1/1200 [..............................] - ETA: 47:03 - loss: 0.8547 - acc: 0.4526
   2/1200 [..............................] - ETA: 24:52 - loss: 1.5942 - acc: 0.5152
…
