Basic network for baselines on histogram data
batch = 623
_________________________________________________________________
Layer (type)                 Output Shape              Param #   
=================================================================
dense_1 (Dense)              (None, 512)               3211776   
_________________________________________________________________
batch_normalization_1 (Batch (None, 512)               2048      
_________________________________________________________________
dense_2 (Dense)              (None, 512)               262656    
_________________________________________________________________
batch_normalization_2 (Batch (None, 512)               2048      
_________________________________________________________________
dense_3 (Dense)              (None, 512)               262656    
_________________________________________________________________
batch_normalization_3 (Batch (None, 512)               2048      
_________________________________________________________________
reshape_1 (Reshape)          (None, 1, 512)            0         
_________________________________________________________________
lstm_1 (LSTM)                (None, 1)                 2056      
=================================================================
Total params: 3,745,288
Trainable params: 3,742,216
Non-trainable params: 3,072
_________________________________________________________________
Epoch 1/5

   1/1200 [..............................] - ETA: 47:18 - loss: 0.5259 - acc: 0.8010
   2/1200 [..............................] - ETA: 25:14 - loss: 1.0003 - acc: 0.7063
   3/1200 [..............................] - ETA: 17:45 - loss: 0.9113 - acc: 0.7057
…
