LSTM network for baselines on histogram data
batch = 623
_________________________________________________________________
Layer (type)                 Output Shape              Param #   
=================================================================
reshape_1 (Reshape)          (None, 1, 6272)           0         
_________________________________________________________________
lstm_1 (LSTM)                (None, 1, 512)            13895680  
_________________________________________________________________
batch_normalization_1 (Batch (None, 1, 512)            2048      
_________________________________________________________________
lstm_2 (LSTM)                (None, 512)               2099200   
_________________________________________________________________
batch_normalization_2 (Batch (None, 512)               2048      
_________________________________________________________________
dense_1 (Dense)              (None, 1)                 513       
=================================================================
Total params: 15,999,489
Trainable params: 15,997,441
Non-trainable params: 2,048
_________________________________________________________________
Epoch 1/3

   1/1200 [..............................] - ETA: 1:59:35 - loss: 0.6989 - acc: 0.4526
   2/1200 [..............................] - ETA: 1:07:32 - loss: 0.7288 - acc: 0.4912
…
