Basic network for baselines on histogram data
batch = 623
_________________________________________________________________
Layer (type)                 Output Shape              Param #   
=================================================================
dense_1 (Dense)              (None, 512)               3211776   
_________________________________________________________________
batch_normalization_1 (Batch (None, 512)               2048      
_________________________________________________________________
dense_2 (Dense)              (None, 512)               262656    
_________________________________________________________________
batch_normalization_2 (Batch (None, 512)               2048      
_________________________________________________________________
reshape_1 (Reshape)          (None, 1, 512)            0         
_________________________________________________________________
lstm_1 (LSTM)                (None, 1)                 2056      
=================================================================
Total params: 3,480,584
Trainable params: 3,478,536
Non-trainable params: 2,048
_________________________________________________________________
Epoch 1/5

   1/1200 [..............................] - ETA: 1:03:50 - loss: 0.4822 - acc: 0.8427
   2/1200 [..............................] - ETA: 33:19 - loss: 0.8450 - acc: 0.7207  
…
