Basic network for baselines on histogram data
batch = 623
_________________________________________________________________
Layer (type)                 Output Shape              Param #   
=================================================================
dense_1 (Dense)              (None, 1024)              6423552   
_________________________________________________________________
batch_normalization_1 (Batch (None, 1024)              4096      
_________________________________________________________________
dense_2 (Dense)              (None, 1024)              1049600   
_________________________________________________________________
batch_normalization_2 (Batch (None, 1024)              4096      
_________________________________________________________________
reshape_1 (Reshape)          (None, 1, 1024)           0         
_________________________________________________________________
lstm_1 (LSTM)                (None, 1)                 4104      
=================================================================
Total params: 7,485,448
Trainable params: 7,481,352
Non-trainable params: 4,096
_________________________________________________________________
Epoch 1/3

   1/1200 [..............................] - ETA: 1:10:03 - loss: 0.5308 - acc: 0.7978
   2/1200 [..............................] - ETA: 37:48 - loss: 0.8964 - acc: 0.6974  
…
