Basic network for baselines on histogram data
batch = 623
_________________________________________________________________
Layer (type)                 Output Shape              Param #   
=================================================================
dense_1 (Dense)              (None, 512)               3211776   
_________________________________________________________________
batch_normalization_1 (Batch (None, 512)               2048      
_________________________________________________________________
dense_2 (Dense)              (None, 512)               262656    
_________________________________________________________________
batch_normalization_2 (Batch (None, 512)               2048      
_________________________________________________________________
reshape_1 (Reshape)          (None, 1, 512)            0         
_________________________________________________________________
lstm_1 (LSTM)                (None, 1)                 2056      
=================================================================
Total params: 3,480,584
Trainable params: 3,478,536
Non-trainable params: 2,048
_________________________________________________________________
Epoch 1/5

   1/1200 [..............................] - ETA: 41:39 - loss: 1.2859 - acc: 0.0000e+00
   2/1200 [..............................] - ETA: 22:12 - loss: 0.8236 - acc: 0.4350    
…
