Basic cnn

_________________________________________________________________
Layer (type)                 Output Shape              Param #   
=================================================================
reshape_1 (Reshape)          (None, 64, 64, 1)         0         
_________________________________________________________________
batch_normalization_1 (Batch (None, 64, 64, 1)         4         
_________________________________________________________________
conv2d_1 (Conv2D)            (None, 64, 64, 20)        520       
_________________________________________________________________
batch_normalization_2 (Batch (None, 64, 64, 20)        80        
_________________________________________________________________
activation_1 (Activation)    (None, 64, 64, 20)        0         
_________________________________________________________________
max_pooling2d_1 (MaxPooling2 (None, 32, 32, 20)        0         
_________________________________________________________________
conv2d_2 (Conv2D)            (None, 32, 32, 40)        7240      
_________________________________________________________________
batch_normalization_3 (Batch (None, 32, 32, 40)        160       
_________________________________________________________________
activation_2 (Activation)    (None, 32, 32, 40)        0         
_________________________________________________________________
max_pooling2d_2 (MaxPooling2 (None, 16, 16, 40)        0         
_________________________________________________________________
flatten_1 (Flatten)          (None, 10240)             0         
_________________________________________________________________
dense_1 (Dense)              (None, 256)               2621696   
_________________________________________________________________
batch_normalization_4 (Batch (None, 256)               1024      
_________________________________________________________________
activation_3 (Activation)    (None, 256)               0         
_________________________________________________________________
dense_2 (Dense)              (None, 1)                 257       
=================================================================
Total params: 2,630,981
Trainable params: 2,630,347
Non-trainable params: 634
_________________________________________________________________
Epoch 1/2

   1/2400 [..............................] - ETA: 4:08:32 - loss: 0.7620 - acc: 0.4976
   2/2400 [..............................] - ETA: 3:39:55 - loss: 1.3795 - acc: 0.5754
…
