Basic network for baselines on histogram data
batch = 623
Model: "sequential_1"
_________________________________________________________________
Layer (type)                 Output Shape              Param #   
=================================================================
dense_1 (Dense)              (None, 512)               3211776   
_________________________________________________________________
batch_normalization_1 (Batch (None, 512)               2048      
_________________________________________________________________
dense_2 (Dense)              (None, 512)               262656    
_________________________________________________________________
batch_normalization_2 (Batch (None, 512)               2048      
_________________________________________________________________
dense_3 (Dense)              (None, 1)                 513       
=================================================================
Total params: 3,479,041
Trainable params: 3,476,993
Non-trainable params: 2,048
_________________________________________________________________
Epoch 1/10

   1/1200 [..............................] - ETA: 31:14 - loss: 0.7233 - acc: 0.4928 - tp: 0.4928 - tn: 0.0000e+00
   2/1200 [..............................] - ETA: 16:56 - loss: 1.0126 - acc: 0.4920 - tp: 0.2464 - tn: 0.2456    
…
